…
[2024-03-11 20:54:13,021] INFO: [0;37mWarning: module ParticleTransformer is treated as a zero-op.[0m
[2024-03-11 20:54:13,021] INFO: [0;37mWarning: module ParticleTransformerTagger_3coll is treated as a zero-op.[0m
[2024-03-11 20:54:13,157] INFO: [0;37mParticleTransformerTagger_3coll(
  |0.798 M, 98.533% Params, 135.049 MMac, 100.000% MACs|
  (cpf_trimmer): SequenceTrimmer(|0.0 M, 0.000% Params, 0.0 Mac, 0.000% MACs|)
  (npf_trimmer): SequenceTrimmer(|0.0 M, 0.000% Params, 0.0 Mac, 0.000% MACs|)
  (sv_trimmer): SequenceTrimmer(|0.0 M, 0.000% Params, 0.0 Mac, 0.000% MACs|)
  (cpf_embed): Embed(
    |0.035 M, 4.291% Params, 3.092 MMac, 2.290% MACs|
    (input_bn): BatchNorm1d(24, eps=1e-05, momentum=0.1, affine=True, track_running_stats=True, |0.0 M, 0.006% Params, 4.32 KMac, 0.003% MACs|)
    (embed): Sequential(
      |0.035 M, 4.285% Params, 3.088 MMac, 2.286% MACs|
      (0): LayerNorm((24,), eps=1e-05, elementwise_affine=True, |0.0 M, 0.000% Params, 0.0 Mac, 0.000% MACs|)
      (1): Linear(in_features=24, out_features=64, bias=True, |0.002 M, 0.198% Params, 138.304 KMac, 0.102% MACs|)
      (2): GELU(approximate='none', |0.0 M, 0.000% Params, 0.0 Mac, 0.000% MACs|)
      (3): LayerNorm((64,), eps=1e-05, elementwise_affine=True, |0.0 M, 0.000% Params, 0.0 Mac, 0.000% MACs|)
      (4): Linear(in_features=64, out_features=256, bias=True, |0.017 M, 2.056% Params, 1.475 MMac, 1.092% MACs|)
      (5): GELU(approximate='none', |0.0 M, 0.000% Params, 0.0 Mac, 0.000% MACs|)
      (6): LayerNorm((256,), eps=1e-05, elementwise_affine=True, |0.0 M, 0.000% Params, 0.0 Mac, 0.000% MACs|)
      (7): Linear(in_features=256, out_features=64, bias=True, |0.016 M, 2.032% Params, 1.475 MMac, 1.092% MACs|)
      (8): GELU(approximate='none', |0.0 M, 0.000% Params, 0.0 Mac, 0.000% MACs|)
    )
  )
  (npf_embed): Embed(
    |0.034 M, 4.152% Params, 1.994 MMac, 1.477% MACs|
    (input_bn): BatchNorm1d(7, eps=1e-05, momentum=0.1, affine=True, track_running_stats=True, |0.0 M, 0.002% Params, 840.0 Mac, 0.001% MACs|)
    (embed): Sequential(
      |0.034 M, 4.151% Params, 1.993 MMac, 1.476% MACs|
      (0): LayerNorm((7,), eps=1e-05, elementwise_affine=True, |0.0 M, 0.000% Params, 0.0 Mac, 0.000% MACs|)
      (1): Linear(in_features=7, out_features=64, bias=True, |0.001 M, 0.063% Params, 26.944 KMac, 0.020% MACs|)
      (2): GELU(approximate='none', |0.0 M, 0.000% Params, 0.0 Mac, 0.000% MACs|)
      (3): LayerNorm((64,), eps=1e-05, elementwise_affine=True, |0.0 M, 0.000% Params, 0.0 Mac, 0.000% MACs|)
      (4): Linear(in_features=64, out_features=256, bias=True, |0.017 M, 2.056% Params, 983.296 KMac, 0.728% MACs|)
      (5): GELU(approximate='none', |0.0 M, 0.000% Params, 0.0 Mac, 0.000% MACs|)
      (6): LayerNorm((256,), eps=1e-05, elementwise_affine=True, |0.0 M, 0.000% Params, 0.0 Mac, 0.000% MACs|)
      (7): Linear(in_features=256, out_features=64, bias=True, |0.016 M, 2.032% Params, 983.104 KMac, 0.728% MACs|)
      (8): GELU(approximate='none', |0.0 M, 0.000% Params, 0.0 Mac, 0.000% MACs|)
    )
  )
  (sv_embed): Embed(
    |0.034 M, 4.185% Params, 335.324 KMac, 0.248% MACs|
    (input_bn): BatchNorm1d(11, eps=1e-05, momentum=0.1, affine=True, track_running_stats=True, |0.0 M, 0.003% Params, 220.0 Mac, 0.000% MACs|)
    (embed): Sequential(
      |0.034 M, 4.182% Params, 335.104 KMac, 0.248% MACs|
      (0): LayerNorm((11,), eps=1e-05, elementwise_affine=True, |0.0 M, 0.000% Params, 0.0 Mac, 0.000% MACs|)
      (1): Linear(in_features=11, out_features=64, bias=True, |0.001 M, 0.095% Params, 7.104 KMac, 0.005% MACs|)
      (2): GELU(approximate='none', |0.0 M, 0.000% Params, 0.0 Mac, 0.000% MACs|)
      (3): LayerNorm((64,), eps=1e-05, elementwise_affine=True, |0.0 M, 0.000% Params, 0.0 Mac, 0.000% MACs|)
      (4): Linear(in_features=64, out_features=256, bias=True, |0.017 M, 2.056% Params, 164.096 KMac, 0.122% MACs|)
      (5): GELU(approximate='none', |0.0 M, 0.000% Params, 0.0 Mac, 0.000% MACs|)
      (6): LayerNorm((256,), eps=1e-05, elementwise_affine=True, |0.0 M, 0.000% Params, 0.0 Mac, 0.000% MACs|)
      (7): Linear(in_features=256, out_features=64, bias=True, |0.016 M, 2.032% Params, 163.904 KMac, 0.121% MACs|)
      (8): GELU(approximate='none', |0.0 M, 0.000% Params, 0.0 Mac, 0.000% MACs|)
    )
  )
  (part): ParticleTransformer(
    |0.695 M, 85.905% Params, 129.627 MMac, 95.985% MACs|
    (trimmer): SequenceTrimmer(|0.0 M, 0.000% Params, 0.0 Mac, 0.000% MACs|)
    (embed): Identity(|0.0 M, 0.000% Params, 0.0 Mac, 0.000% MACs|)
    (pair_embed): PairEmbed(
      |0.003 M, 0.340% Params, 35.446 MMac, 26.247% MACs|
      (embed): Sequential(
        |0.003 M, 0.340% Params, 35.446 MMac, 26.247% MACs|
        (0): BatchNorm1d(4, eps=1e-05, momentum=0.1, affine=True, track_running_stats=True, |0.0 M, 0.001% Params, 103.04 KMac, 0.076% MACs|)
        (1): Conv1d(4, 32, kernel_size=(1,), stride=(1,), |0.0 M, 0.020% Params, 2.061 MMac, 1.526% MACs|)
        (2): BatchNorm1d(32, eps=1e-05, momentum=0.1, affine=True, track_running_stats=True, |0.0 M, 0.008% Params, 824.32 KMac, 0.610% MACs|)
        (3): GELU(approximate='none', |0.0 M, 0.000% Params, 0.0 Mac, 0.000% MACs|)
        (4): Conv1d(32, 32, kernel_size=(1,), stride=(1,), |0.001 M, 0.130% Params, 13.601 MMac, 10.071% MACs|)
        (5): BatchNorm1d(32, eps=1e-05, momentum=0.1, affine=True, track_running_stats=True, |0.0 M, 0.008% Params, 824.32 KMac, 0.610% MACs|)
        (6): GELU(approximate='none', |0.0 M, 0.000% Params, 0.0 Mac, 0.000% MACs|)
        (7): Conv1d(32, 32, kernel_size=(1,), stride=(1,), |0.001 M, 0.130% Params, 13.601 MMac, 10.071% MACs|)
        (8): BatchNorm1d(32, eps=1e-05, momentum=0.1, affine=True, track_running_stats=True, |0.0 M, 0.008% Params, 824.32 KMac, 0.610% MACs|)
        (9): GELU(approximate='none', |0.0 M, 0.000% Params, 0.0 Mac, 0.000% MACs|)
        (10): Conv1d(32, 8, kernel_size=(1,), stride=(1,), |0.0 M, 0.033% Params, 3.4 MMac, 2.518% MACs|)
        (11): BatchNorm1d(8, eps=1e-05, momentum=0.1, affine=True, track_running_stats=True, |0.0 M, 0.002% Params, 206.08 KMac, 0.153% MACs|)
      )
    )
    (blocks): ModuleList(
      (0-7): 8 x Block(
        |0.05 M, 6.143% Params, 11.397 MMac, 8.440% MACs|
        (pre_attn_norm): LayerNorm((64,), eps=1e-05, elementwise_affine=True, |0.0 M, 0.000% Params, 0.0 Mac, 0.000% MACs|)
        (attn): MultiheadAttention(
          |0.017 M, 2.056% Params, 6.154 MMac, 4.557% MACs|
          (out_proj): NonDynamicallyQuantizableLinear(in_features=64, out_features=64, bias=True, |0.0 M, 0.000% Params, 0.0 Mac, 0.000% MACs|)
        )
        (post_attn_norm): LayerNorm((64,), eps=1e-05, elementwise_affine=True, |0.0 M, 0.000% Params, 0.0 Mac, 0.000% MACs|)
        (dropout): Dropout(p=0.1, inplace=False, |0.0 M, 0.000% Params, 0.0 Mac, 0.000% MACs|)
        (pre_fc_norm): LayerNorm((64,), eps=1e-05, elementwise_affine=True, |0.0 M, 0.000% Params, 0.0 Mac, 0.000% MACs|)
        (fc1): Linear(in_features=64, out_features=256, bias=True, |0.017 M, 2.056% Params, 2.622 MMac, 1.941% MACs|)
        (act): GELU(approximate='none', |0.0 M, 0.000% Params, 0.0 Mac, 0.000% MACs|)
        (act_dropout): Dropout(p=0.1, inplace=False, |0.0 M, 0.000% Params, 0.0 Mac, 0.000% MACs|)
        (post_fc_norm): LayerNorm((256,), eps=1e-05, elementwise_affine=True, |0.0 M, 0.000% Params, 0.0 Mac, 0.000% MACs|)
        (fc2): Linear(in_features=256, out_features=64, bias=True, |0.016 M, 2.032% Params, 2.622 MMac, 1.941% MACs|)
      )
    )
    (cls_blocks): ModuleList(
      (0-1): 2 x Block(
        |0.05 M, 6.143% Params, 1.403 MMac, 1.039% MACs|
        (pre_attn_norm): LayerNorm((64,), eps=1e-05, elementwise_affine=True, |0.0 M, 0.000% Params, 0.0 Mac, 0.000% MACs|)
        (attn): MultiheadAttention(
          |0.017 M, 2.056% Params, 1.37 MMac, 1.014% MACs|
          (out_proj): NonDynamicallyQuantizableLinear(in_features=64, out_features=64, bias=True, |0.0 M, 0.000% Params, 0.0 Mac, 0.000% MACs|)
        )
        (post_attn_norm): LayerNorm((64,), eps=1e-05, elementwise_affine=True, |0.0 M, 0.000% Params, 0.0 Mac, 0.000% MACs|)
        (dropout): Dropout(p=0, inplace=False, |0.0 M, 0.000% Params, 0.0 Mac, 0.000% MACs|)
        (pre_fc_norm): LayerNorm((64,), eps=1e-05, elementwise_affine=True, |0.0 M, 0.000% Params, 0.0 Mac, 0.000% MACs|)
        (fc1): Linear(in_features=64, out_features=256, bias=True, |0.017 M, 2.056% Params, 16.64 KMac, 0.012% MACs|)
        (act): GELU(approximate='none', |0.0 M, 0.000% Params, 0.0 Mac, 0.000% MACs|)
        (act_dropout): Dropout(p=0, inplace=False, |0.0 M, 0.000% Params, 0.0 Mac, 0.000% MACs|)
        (post_fc_norm): LayerNorm((256,), eps=1e-05, elementwise_affine=True, |0.0 M, 0.000% Params, 0.0 Mac, 0.000% MACs|)
        (fc2): Linear(in_features=256, out_features=64, bias=True, |0.016 M, 2.032% Params, 16.448 KMac, 0.012% MACs|)
      )
    )
    (norm): LayerNorm((64,), eps=1e-05, elementwise_affine=True, |0.0 M, 0.000% Params, 0.0 Mac, 0.000% MACs|)
    (fc): Sequential(
      |0.195 M, 24.136% Params, 195.9 KMac, 0.145% MACs|
      (0): Sequential(
        |0.033 M, 4.111% Params, 33.792 KMac, 0.025% MACs|
        (0): Linear(in_features=64, out_features=512, bias=True, |0.033 M, 4.111% Params, 33.28 KMac, 0.025% MACs|)
        (1): ReLU(|0.0 M, 0.000% Params, 512.0 Mac, 0.000% MACs|)
        (2): Dropout(p=0.1, inplace=False, |0.0 M, 0.000% Params, 0.0 Mac, 0.000% MACs|)
      )
      (1): Linear(in_features=512, out_features=316, bias=True, |0.162 M, 20.025% Params, 162.108 KMac, 0.120% MACs|)
    )
  )
)[0m
[2024-03-11 20:54:13,160] INFO: Computational complexity:       135.05 MMac
[2024-03-11 20:54:13,160] INFO: Number of parameters:           809.52 k
[2024-03-11 20:54:13,160] INFO: Using loss function HybridLoss(
  (loss_cls_fn): CrossEntropyLoss()
  (loss_reg_fn): LogCoshLoss()
) with options {'three_coll': True, 'loss_gamma': 5, 'fc_params': [(512, 0.1)], 'embed_dims': [64, 256, 64], 'pair_embed_dims': [32, 32, 32], 'use_amp': True}
…
