…
[2024-05-12 17:11:04,758] INFO: [0;37mWarning: module ParticleTransformer is treated as a zero-op.[0m
[2024-05-12 17:11:04,758] INFO: [0;37mWarning: module ParticleTransformerTagger_3coll is treated as a zero-op.[0m
[2024-05-12 17:11:10,933] INFO: [0;37mParticleTransformerTagger_3coll(
  |0.653 M, 98.212% Params, 134.939 MMac, 100.000% MACs|
  (cpf_trimmer): SequenceTrimmer(|0.0 M, 0.000% Params, 0.0 Mac, 0.000% MACs|)
  (npf_trimmer): SequenceTrimmer(|0.0 M, 0.000% Params, 0.0 Mac, 0.000% MACs|)
  (sv_trimmer): SequenceTrimmer(|0.0 M, 0.000% Params, 0.0 Mac, 0.000% MACs|)
  (cpf_embed): Embed(
    |0.035 M, 5.285% Params, 3.128 MMac, 2.318% MACs|
    (input_bn): BatchNorm1d(30, eps=1e-05, momentum=0.1, affine=True, track_running_stats=True, |0.0 M, 0.009% Params, 5.4 KMac, 0.004% MACs|)
    (embed): Sequential(
      |0.035 M, 5.276% Params, 3.122 MMac, 2.314% MACs|
      (0): LayerNorm((30,), eps=1e-05, elementwise_affine=True, |0.0 M, 0.000% Params, 0.0 Mac, 0.000% MACs|)
      (1): Linear(in_features=30, out_features=64, bias=True, |0.002 M, 0.298% Params, 172.864 KMac, 0.128% MACs|)
      (2): GELU(approximate='none', |0.0 M, 0.000% Params, 0.0 Mac, 0.000% MACs|)
      (3): LayerNorm((64,), eps=1e-05, elementwise_affine=True, |0.0 M, 0.000% Params, 0.0 Mac, 0.000% MACs|)
      (4): Linear(in_features=64, out_features=256, bias=True, |0.017 M, 2.503% Params, 1.475 MMac, 1.093% MACs|)
      (5): GELU(approximate='none', |0.0 M, 0.000% Params, 0.0 Mac, 0.000% MACs|)
      (6): LayerNorm((256,), eps=1e-05, elementwise_affine=True, |0.0 M, 0.000% Params, 0.0 Mac, 0.000% MACs|)
      (7): Linear(in_features=256, out_features=64, bias=True, |0.016 M, 2.474% Params, 1.475 MMac, 1.093% MACs|)
      (8): GELU(approximate='none', |0.0 M, 0.000% Params, 0.0 Mac, 0.000% MACs|)
    )
  )
  (npf_embed): Embed(
    |0.034 M, 5.057% Params, 1.994 MMac, 1.478% MACs|
    (input_bn): BatchNorm1d(7, eps=1e-05, momentum=0.1, affine=True, track_running_stats=True, |0.0 M, 0.002% Params, 840.0 Mac, 0.001% MACs|)
    (embed): Sequential(
      |0.034 M, 5.055% Params, 1.993 MMac, 1.477% MACs|
      (0): LayerNorm((7,), eps=1e-05, elementwise_affine=True, |0.0 M, 0.000% Params, 0.0 Mac, 0.000% MACs|)
      (1): Linear(in_features=7, out_features=64, bias=True, |0.001 M, 0.077% Params, 26.944 KMac, 0.020% MACs|)
      (2): GELU(approximate='none', |0.0 M, 0.000% Params, 0.0 Mac, 0.000% MACs|)
      (3): LayerNorm((64,), eps=1e-05, elementwise_affine=True, |0.0 M, 0.000% Params, 0.0 Mac, 0.000% MACs|)
      (4): Linear(in_features=64, out_features=256, bias=True, |0.017 M, 2.503% Params, 983.296 KMac, 0.729% MACs|)
      (5): GELU(approximate='none', |0.0 M, 0.000% Params, 0.0 Mac, 0.000% MACs|)
      (6): LayerNorm((256,), eps=1e-05, elementwise_affine=True, |0.0 M, 0.000% Params, 0.0 Mac, 0.000% MACs|)
      (7): Linear(in_features=256, out_features=64, bias=True, |0.016 M, 2.474% Params, 983.104 KMac, 0.729% MACs|)
      (8): GELU(approximate='none', |0.0 M, 0.000% Params, 0.0 Mac, 0.000% MACs|)
    )
  )
  (sv_embed): Embed(
    |0.034 M, 5.096% Params, 335.324 KMac, 0.249% MACs|
    (input_bn): BatchNorm1d(11, eps=1e-05, momentum=0.1, affine=True, track_running_stats=True, |0.0 M, 0.003% Params, 220.0 Mac, 0.000% MACs|)
    (embed): Sequential(
      |0.034 M, 5.093% Params, 335.104 KMac, 0.248% MACs|
      (0): LayerNorm((11,), eps=1e-05, elementwise_affine=True, |0.0 M, 0.000% Params, 0.0 Mac, 0.000% MACs|)
      (1): Linear(in_features=11, out_features=64, bias=True, |0.001 M, 0.116% Params, 7.104 KMac, 0.005% MACs|)
      (2): GELU(approximate='none', |0.0 M, 0.000% Params, 0.0 Mac, 0.000% MACs|)
      (3): LayerNorm((64,), eps=1e-05, elementwise_affine=True, |0.0 M, 0.000% Params, 0.0 Mac, 0.000% MACs|)
      (4): Linear(in_features=64, out_features=256, bias=True, |0.017 M, 2.503% Params, 164.096 KMac, 0.122% MACs|)
      (5): GELU(approximate='none', |0.0 M, 0.000% Params, 0.0 Mac, 0.000% MACs|)
      (6): LayerNorm((256,), eps=1e-05, elementwise_affine=True, |0.0 M, 0.000% Params, 0.0 Mac, 0.000% MACs|)
      (7): Linear(in_features=256, out_features=64, bias=True, |0.016 M, 2.474% Params, 163.904 KMac, 0.121% MACs|)
      (8): GELU(approximate='none', |0.0 M, 0.000% Params, 0.0 Mac, 0.000% MACs|)
    )
  )
  (part): ParticleTransformer(
    |0.55 M, 82.774% Params, 129.482 MMac, 95.956% MACs|
    (trimmer): SequenceTrimmer(|0.0 M, 0.000% Params, 0.0 Mac, 0.000% MACs|)
    (embed): Identity(|0.0 M, 0.000% Params, 0.0 Mac, 0.000% MACs|)
    (pair_embed): PairEmbed(
      |0.003 M, 0.414% Params, 35.446 MMac, 26.268% MACs|
      (embed): Sequential(
        |0.003 M, 0.414% Params, 35.446 MMac, 26.268% MACs|
        (0): BatchNorm1d(4, eps=1e-05, momentum=0.1, affine=True, track_running_stats=True, |0.0 M, 0.001% Params, 103.04 KMac, 0.076% MACs|)
        (1): Conv1d(4, 32, kernel_size=(1,), stride=(1,), |0.0 M, 0.024% Params, 2.061 MMac, 1.527% MACs|)
        (2): BatchNorm1d(32, eps=1e-05, momentum=0.1, affine=True, track_running_stats=True, |0.0 M, 0.010% Params, 824.32 KMac, 0.611% MACs|)
        (3): GELU(approximate='none', |0.0 M, 0.000% Params, 0.0 Mac, 0.000% MACs|)
        (4): Conv1d(32, 32, kernel_size=(1,), stride=(1,), |0.001 M, 0.159% Params, 13.601 MMac, 10.080% MACs|)
        (5): BatchNorm1d(32, eps=1e-05, momentum=0.1, affine=True, track_running_stats=True, |0.0 M, 0.010% Params, 824.32 KMac, 0.611% MACs|)
        (6): GELU(approximate='none', |0.0 M, 0.000% Params, 0.0 Mac, 0.000% MACs|)
        (7): Conv1d(32, 32, kernel_size=(1,), stride=(1,), |0.001 M, 0.159% Params, 13.601 MMac, 10.080% MACs|)
        (8): BatchNorm1d(32, eps=1e-05, momentum=0.1, affine=True, track_running_stats=True, |0.0 M, 0.010% Params, 824.32 KMac, 0.611% MACs|)
        (9): GELU(approximate='none', |0.0 M, 0.000% Params, 0.0 Mac, 0.000% MACs|)
        (10): Conv1d(32, 8, kernel_size=(1,), stride=(1,), |0.0 M, 0.040% Params, 3.4 MMac, 2.520% MACs|)
        (11): BatchNorm1d(8, eps=1e-05, momentum=0.1, affine=True, track_running_stats=True, |0.0 M, 0.002% Params, 206.08 KMac, 0.153% MACs|)
      )
    )
    (blocks): ModuleList(
      (0-7): 8 x Block(
        |0.05 M, 7.481% Params, 11.397 MMac, 8.446% MACs|
        (pre_attn_norm): LayerNorm((64,), eps=1e-05, elementwise_affine=True, |0.0 M, 0.000% Params, 0.0 Mac, 0.000% MACs|)
        (attn): MultiheadAttention(
          |0.017 M, 2.503% Params, 6.154 MMac, 4.561% MACs|
          (out_proj): NonDynamicallyQuantizableLinear(in_features=64, out_features=64, bias=True, |0.0 M, 0.000% Params, 0.0 Mac, 0.000% MACs|)
        )
        (post_attn_norm): LayerNorm((64,), eps=1e-05, elementwise_affine=True, |0.0 M, 0.000% Params, 0.0 Mac, 0.000% MACs|)
        (dropout): Dropout(p=0.1, inplace=False, |0.0 M, 0.000% Params, 0.0 Mac, 0.000% MACs|)
        (pre_fc_norm): LayerNorm((64,), eps=1e-05, elementwise_affine=True, |0.0 M, 0.000% Params, 0.0 Mac, 0.000% MACs|)
        (fc1): Linear(in_features=64, out_features=256, bias=True, |0.017 M, 2.503% Params, 2.622 MMac, 1.943% MACs|)
        (act): GELU(approximate='none', |0.0 M, 0.000% Params, 0.0 Mac, 0.000% MACs|)
        (act_dropout): Dropout(p=0.1, inplace=False, |0.0 M, 0.000% Params, 0.0 Mac, 0.000% MACs|)
        (post_fc_norm): LayerNorm((256,), eps=1e-05, elementwise_affine=True, |0.0 M, 0.000% Params, 0.0 Mac, 0.000% MACs|)
        (fc2): Linear(in_features=256, out_features=64, bias=True, |0.016 M, 2.474% Params, 2.622 MMac, 1.943% MACs|)
      )
    )
    (cls_blocks): ModuleList(
      (0-1): 2 x Block(
        |0.05 M, 7.481% Params, 1.403 MMac, 1.040% MACs|
        (pre_attn_norm): LayerNorm((64,), eps=1e-05, elementwise_affine=True, |0.0 M, 0.000% Params, 0.0 Mac, 0.000% MACs|)
        (attn): MultiheadAttention(
          |0.017 M, 2.503% Params, 1.37 MMac, 1.015% MACs|
          (out_proj): NonDynamicallyQuantizableLinear(in_features=64, out_features=64, bias=True, |0.0 M, 0.000% Params, 0.0 Mac, 0.000% MACs|)
        )
        (post_attn_norm): LayerNorm((64,), eps=1e-05, elementwise_affine=True, |0.0 M, 0.000% Params, 0.0 Mac, 0.000% MACs|)
        (dropout): Dropout(p=0, inplace=False, |0.0 M, 0.000% Params, 0.0 Mac, 0.000% MACs|)
        (pre_fc_norm): LayerNorm((64,), eps=1e-05, elementwise_affine=True, |0.0 M, 0.000% Params, 0.0 Mac, 0.000% MACs|)
        (fc1): Linear(in_features=64, out_features=256, bias=True, |0.017 M, 2.503% Params, 16.64 KMac, 0.012% MACs|)
        (act): GELU(approximate='none', |0.0 M, 0.000% Params, 0.0 Mac, 0.000% MACs|)
        (act_dropout): Dropout(p=0, inplace=False, |0.0 M, 0.000% Params, 0.0 Mac, 0.000% MACs|)
        (post_fc_norm): LayerNorm((256,), eps=1e-05, elementwise_affine=True, |0.0 M, 0.000% Params, 0.0 Mac, 0.000% MACs|)
        (fc2): Linear(in_features=256, out_features=64, bias=True, |0.016 M, 2.474% Params, 16.448 KMac, 0.012% MACs|)
      )
    )
    (norm): LayerNorm((64,), eps=1e-05, elementwise_affine=True, |0.0 M, 0.000% Params, 0.0 Mac, 0.000% MACs|)
    (fc): Sequential(
      |0.05 M, 7.553% Params, 50.721 KMac, 0.038% MACs|
      (0): Sequential(
        |0.033 M, 5.006% Params, 33.792 KMac, 0.025% MACs|
        (0): Linear(in_features=64, out_features=512, bias=True, |0.033 M, 5.006% Params, 33.28 KMac, 0.025% MACs|)
        (1): ReLU(|0.0 M, 0.000% Params, 512.0 Mac, 0.000% MACs|)
        (2): Dropout(p=0.1, inplace=False, |0.0 M, 0.000% Params, 0.0 Mac, 0.000% MACs|)
      )
      (1): Linear(in_features=512, out_features=33, bias=True, |0.017 M, 2.547% Params, 16.929 KMac, 0.013% MACs|)
    )
  )
)[0m
[2024-05-12 17:11:10,958] INFO: Computational complexity:       134.94 MMac
[2024-05-12 17:11:10,958] INFO: Number of parameters:           664.75 k
[2024-05-12 17:11:10,959] INFO: Using loss function CrossEntropyLoss() with options {'three_coll': True, 'loss_gamma': 5, 'fc_params': [(512, 0.1)], 'embed_dims': [64, 256, 64], 'pair_embed_dims': [32, 32, 32], 'use_amp': True}
…
